
Loading data...
41522 samples and 5013 tables in the training set
4396   samples and 1197   tables in the validation set
Loading finished.
Creating dataset and dataloader...
Creating finished.
Initializing model...
Model(
  (bert_as_encoder): AlbertModel(
    (embeddings): AlbertEmbeddings(
      (word_embeddings): Embedding(21128, 128, padding_idx=0)
      (position_embeddings): Embedding(512, 128)
      (token_type_embeddings): Embedding(2, 128)
      (LayerNorm): LayerNorm((128,), eps=1e-12, elementwise_affine=True)
      (dropout): Dropout(p=0, inplace=False)
    )
    (encoder): AlbertTransformer(
      (embedding_hidden_mapping_in): Linear(in_features=128, out_features=768, bias=True)
      (albert_layer_groups): ModuleList(
        (0): AlbertLayerGroup(
          (albert_layers): ModuleList(
            (0): AlbertLayer(
              (full_layer_layer_norm): LayerNorm((768,), eps=1e-12, elementwise_affine=True)
              (attention): AlbertAttention(
                (query): Linear(in_features=768, out_features=768, bias=True)
                (key): Linear(in_features=768, out_features=768, bias=True)
                (value): Linear(in_features=768, out_features=768, bias=True)
                (attention_dropout): Dropout(p=0, inplace=False)
                (output_dropout): Dropout(p=0, inplace=False)
                (dense): Linear(in_features=768, out_features=768, bias=True)
                (LayerNorm): LayerNorm((768,), eps=1e-12, elementwise_affine=True)
              )
              (ffn): Linear(in_features=768, out_features=3072, bias=True)
              (ffn_output): Linear(in_features=3072, out_features=768, bias=True)
              (dropout): Dropout(p=0, inplace=False)
            )
          )
        )
      )
    )
    (pooler): Linear(in_features=768, out_features=768, bias=True)
    (pooler_activation): Tanh()
  )
  (dense_COND_CONN_OP): Linear(in_features=768, out_features=3, bias=True)
  (dense_SEL_AGG): Linear(in_features=768, out_features=7, bias=True)
  (dense_COND_OP): Linear(in_features=768, out_features=5, bias=True)
)
Parameters: 10559503, trainable: 10559503, untrainable: 0
Initializing finished...
Start training...
epoch 1/50, step 1/163, COND_CONN_OP loss 1.1158, SEL_AGG loss 1.7733, COND_CONN_OP loss 1.6779, train loss 4.5670, COND_CONN_OP acc 0.3359, SEL_AGG acc 0.4042, COND_OP acc 0.0940, time 22.2388s.
epoch 1/50, step 2/163, COND_CONN_OP loss 1.0979, SEL_AGG loss 1.7917, COND_CONN_OP loss 1.6946, train loss 4.5842, COND_CONN_OP acc 0.3281, SEL_AGG acc 0.3830, COND_OP acc 0.0949, time 1.5112s.
…
